…
    interval=1, less_keys=['mad'], greater_keys=['acc'], save_best='mad')
lr_config = dict(
    policy='CosineAnnealing',
    min_lr=0,
    by_epoch=False,
    warmup='linear',
    warmup_ratio=0.001,
    warmup_iters=100,
    warmup_by_epoch=False)
checkpoint_config = dict(by_epoch=True, interval=1)
log_config = dict(
    interval=25, hooks=[dict(type='TextLoggerHook', by_epoch=False)])
work_dir = './work_dirs/train_config'
gpu_ids = range(0, 1)

2024-08-31 08:56:14,163 - drb - INFO - Set random seed to 694959233, deterministic: False
2024-08-31 08:56:24,321 - drb - INFO - OCTEVA3D(
  (patch_embed): PatchEmbed(
    (proj): Conv2d(1, 192, kernel_size=(14, 14), stride=(14, 14))
    (norm): Identity()
  )
  (blocks): ModuleList(
    (0-11): 12 x EvaBlock(
      (norm1): LayerNorm((192,), eps=1e-06, elementwise_affine=True)
      (attn): EvaAttention(
        (qkv): Linear(in_features=192, out_features=576, bias=False)
        (attn_drop): Dropout(p=0.0, inplace=False)
        (norm): Identity()
        (proj): Linear(in_features=192, out_features=192, bias=True)
        (proj_drop): Dropout(p=0.0, inplace=False)
      )
      (drop_path1): Identity()
      (norm2): LayerNorm((192,), eps=1e-06, elementwise_affine=True)
      (mlp): GluMlp(
        (fc1): Linear(in_features=192, out_features=1024, bias=True)
        (act): SiLU()
        (drop1): Dropout(p=0.0, inplace=False)
        (norm): Identity()
        (fc2): Linear(in_features=512, out_features=192, bias=True)
        (drop2): Dropout(p=0.0, inplace=False)
      )
      (drop_path2): Identity()
    )
  )
  (pos_drop): Dropout(p=0.0, inplace=False)
  (rope): RotaryEmbeddingCat()
  (norm): Identity()
  (age_embed): Embedding(120, 192)
  (slice_fuse): Sequential(
    (0): FuseSliceLayer(
      (attn): MultiheadAttention(
        (out_proj): NonDynamicallyQuantizableLinear(in_features=192, out_features=192, bias=True)
      )
    )
    (1): FuseSliceLayer(
      (attn): MultiheadAttention(
        (out_proj): NonDynamicallyQuantizableLinear(in_features=192, out_features=192, bias=True)
      )
    )
    (2): FuseSliceLayer(
      (attn): MultiheadAttention(
        (out_proj): NonDynamicallyQuantizableLinear(in_features=192, out_features=192, bias=True)
      )
    )
  )
  (reg_head): Linear(in_features=192, out_features=54, bias=True)
  (cls_head): Linear(in_features=192, out_features=104, bias=True)
)
2024-08-31 08:56:37,186 - drb - INFO - Start running, host: root@dsw-90562-d9b4f779c-4pmnh, work_dir: /cpfs01/user/songdiping/Workspaces/Codes/oct2vf_github/work_dirs/train_config
2024-08-31 08:56:37,187 - drb - INFO - Hooks will be executed in the following order:
before_run:
(VERY_HIGH   ) CosineAnnealingLrUpdaterHook       
(ABOVE_NORMAL) Fp16OptimizerHook                  
…
